TransformerModel(
  (encoder): TransformerEncoder(
    (embed_tokens): Embedding(56, 64, padding_idx=1)
    (embed_positions): SinusoidalPositionalEmbedding()
    (layers): ModuleList(
      (0): TransformerEncoderLayer(
        (self_attn): MultiheadAttention(
          (k_proj): Linear(in_features=64, out_features=64, bias=True)
          (v_proj): Linear(in_features=64, out_features=64, bias=True)
          (q_proj): Linear(in_features=64, out_features=64, bias=True)
          (out_proj): Linear(in_features=64, out_features=64, bias=True)
        )
        (self_attn_layer_norm): LayerNorm((64,), eps=1e-05, elementwise_affine=True)
        (fc1): Linear(in_features=64, out_features=256, bias=True)
        (fc2): Linear(in_features=256, out_features=64, bias=True)
        (final_layer_norm): LayerNorm((64,), eps=1e-05, elementwise_affine=True)
      )
      (1): TransformerEncoderLayer(
        (self_attn): MultiheadAttention(
          (k_proj): Linear(in_features=64, out_features=64, bias=True)
          (v_proj): Linear(in_features=64, out_features=64, bias=True)
          (q_proj): Linear(in_features=64, out_features=64, bias=True)
          (out_proj): Linear(in_features=64, out_features=64, bias=True)
        )
        (self_attn_layer_norm): LayerNorm((64,), eps=1e-05, elementwise_affine=True)
        (fc1): Linear(in_features=64, out_features=256, bias=True)
        (fc2): Linear(in_features=256, out_features=64, bias=True)
        (final_layer_norm): LayerNorm((64,), eps=1e-05, elementwise_affine=True)
      )
    )
  )
  (decoder): TransformerDecoder(
    (embed_tokens): Embedding(48, 64, padding_idx=1)
    (embed_positions): SinusoidalPositionalEmbedding()
    (layers): ModuleList(
      (0): TransformerDecoderLayer(
        (self_attn): MultiheadAttention(
          (k_proj): Linear(in_features=64, out_features=64, bias=True)
          (v_proj): Linear(in_features=64, out_features=64, bias=True)
          (q_proj): Linear(in_features=64, out_features=64, bias=True)
          (out_proj): Linear(in_features=64, out_features=64, bias=True)
        )
        (self_attn_layer_norm): LayerNorm((64,), eps=1e-05, elementwise_affine=True)
        (encoder_attn): MultiheadAttention(
          (k_proj): Linear(in_features=64, out_features=64, bias=True)
          (v_proj): Linear(in_features=64, out_features=64, bias=True)
          (q_proj): Linear(in_features=64, out_features=64, bias=True)
          (out_proj): Linear(in_features=64, out_features=64, bias=True)
        )
        (encoder_attn_layer_norm): LayerNorm((64,), eps=1e-05, elementwise_affine=True)
        (fc1): Linear(in_features=64, out_features=256, bias=True)
        (fc2): Linear(in_features=256, out_features=64, bias=True)
        (final_layer_norm): LayerNorm((64,), eps=1e-05, elementwise_affine=True)
      )
      (1): TransformerDecoderLayer(
        (self_attn): MultiheadAttention(
          (k_proj): Linear(in_features=64, out_features=64, bias=True)
          (v_proj): Linear(in_features=64, out_features=64, bias=True)
          (q_proj): Linear(in_features=64, out_features=64, bias=True)
          (out_proj): Linear(in_features=64, out_features=64, bias=True)
        )
        (self_attn_layer_norm): LayerNorm((64,), eps=1e-05, elementwise_affine=True)
        (encoder_attn): MultiheadAttention(
          (k_proj): Linear(in_features=64, out_features=64, bias=True)
          (v_proj): Linear(in_features=64, out_features=64, bias=True)
          (q_proj): Linear(in_features=64, out_features=64, bias=True)
          (out_proj): Linear(in_features=64, out_features=64, bias=True)
        )
        (encoder_attn_layer_norm): LayerNorm((64,), eps=1e-05, elementwise_affine=True)
        (fc1): Linear(in_features=64, out_features=256, bias=True)
        (fc2): Linear(in_features=256, out_features=64, bias=True)
        (final_layer_norm): LayerNorm((64,), eps=1e-05, elementwise_affine=True)
      )
    )
  )

criterion='cross_entropy'
min_loss_scale=0.0001
activation_dropout=0.0, activation_fn='relu', optimizer='adam', optimizer_overrides='{}', adam_betas='(0.9, 0.999)', adam_eps=1e-08, adaptive_input=False, 

adaptive_softmax_cutoff=None, adaptive_softmax_dropout=0, arch='transformer', attention_dropout=0.0, best_checkpoint_metric='loss'
curriculum=0, data='morph-bin/english/medium', dataset_impl=None, ddp_backend='c10d', decoder_attention_heads=4, decoder_embed_dim=64, decoder_embed_path=None, 
…
